…
(fc1): Linear(in_features=400, out_features=120, bias=True)
(fc2): Linear(in_features=120, out_features=84, bias=True)
(fc3): Linear(in_features=84, out_features=10, bias=True)
)
```
Print the summary of the lenet5  to check the params
```python
# add the cuda to the mode
device = torch.device("cuda" if torch.cuda.is_available() else "cpu")
lenet5.to(device)
#Print the summary of the model
summary(lenet5, (1, 32, 32))
```
```python
----------------------------------------------------------------
Layer (type)               Output Shape         Param #
================================================================
Conv2d-1            [-1, 6, 28, 28]             156
MaxPool2d-2            [-1, 6, 14, 14]               0
Conv2d-3           [-1, 16, 10, 10]           2,416
MaxPool2d-4             [-1, 16, 5, 5]               0
Linear-5                  [-1, 120]          48,120
Linear-6                   [-1, 84]          10,164
Linear-7                   [-1, 10]             850
================================================================
Total params: 61,706
Trainable params: 61,706
Non-trainable params: 0
----------------------------------------------------------------
Input size (MB): 0.00
Forward/backward pass size (MB): 0.06
Params size (MB): 0.24
Estimated Total Size (MB): 0.30
----------------------------------------------------------------
```
### 2. AlexNNet
…
(fc1): Linear(in_features=9216, out_features=4096, bias=True)
(fc2): Linear(in_features=4096, out_features=4096, bias=True)
(fc3): Linear(in_features=4096, out_features=1000, bias=True)
)
```
Print the summary of the alexnet to check the params
```python
# add the cuda to the mode
device = torch.device("cuda" if torch.cuda.is_available() else "cpu")
alexnet.to(device)
#Print the summary of the model
summary(alexnet, (3, 224, 224))
```
```python
----------------------------------------------------------------
Layer (type)               Output Shape         Param #
================================================================
Conv2d-1           [-1, 96, 55, 55]          34,944
MaxPool2d-2           [-1, 96, 27, 27]               0
Conv2d-3          [-1, 256, 27, 27]         614,656
MaxPool2d-4          [-1, 256, 13, 13]               0
Conv2d-5          [-1, 384, 13, 13]         885,120
Conv2d-6          [-1, 384, 13, 13]       1,327,488
Conv2d-7          [-1, 256, 13, 13]         884,992
MaxPool2d-8            [-1, 256, 6, 6]               0
Linear-9                 [-1, 4096]      37,752,832
Linear-10                 [-1, 4096]      16,781,312
Linear-11                 [-1, 1000]       4,097,000
================================================================
Total params: 62,378,344
Trainable params: 62,378,344
Non-trainable params: 0
----------------------------------------------------------------
Input size (MB): 0.57
Forward/backward pass size (MB): 5.96
Params size (MB): 237.95
Estimated Total Size (MB): 244.49
----------------------------------------------------------------
```
Output as in google Colab Link - https://colab.research.google.com/drive/1kicnALE1T2c28hHPYeyFwNaOpkl_nFpQ?usp=sharing
…
