…
outputs = keras.layers.Dense(1)(x)
model = keras.Model(inputs, outputs)
model.summary()
```




```python
Downloading data from https://storage.googleapis.com/tensorflow/keras-applications/xception/xception_weights_tf_dim_ordering_tf_kernels_notop.h5
83683744/83683744 [==============================] - 0s 0us/step
Model: "model"
_________________________________________________________________
 Layer (type)                Output Shape              Param #   
=================================================================
 input_5 (InputLayer)        [(None, 150, 150, 3)]     0         
 sequential_3 (Sequential)   (None, 150, 150, 3)       0         
 rescaling (Rescaling)       (None, 150, 150, 3)       0         
 xception (Functional)       (None, 5, 5, 2048)        20861480  
 global_average_pooling2d (  (None, 2048)              0         
 GlobalAveragePooling2D)                                         
 dropout (Dropout)           (None, 2048)              0         
 dense_7 (Dense)             (None, 1)                 2049      
=================================================================
Total params: 20863529 (79.59 MB)
Trainable params: 2049 (8.00 KB)
Non-trainable params: 20861480 (79.58 MB)
_________________________________________________________________
```




## Train the top layer


```python
model.compile(
    optimizer=keras.optimizers.Adam(),
    loss=keras.losses.BinaryCrossentropy(from_logits=True),
…
