…
# the make_mlp_sequential_model() or make_mlp_subclass_model() functions
# respectively, defined above. Note that if a subclass model is used, its
# summary cannot be generated until it is built.
base_model_tag, base_model = 'FUNCTIONAL', make_mlp_functional_model(HPARAMS)
base_model.summary()
```
```python
Model: "model"
_________________________________________________________________
Layer (type)                Output Shape              Param #
=================================================================
words (InputLayer)          [(None, 1433)]            0
lambda (Lambda)             (None, 1433)              0
dense (Dense)               (None, 50)                71700
dropout (Dropout)           (None, 50)                0
dense_1 (Dense)             (None, 50)                2550
dropout_1 (Dropout)         (None, 50)                0
dense_2 (Dense)             (None, 7)                 357
=================================================================
Total params: 74607 (291.43 KB)
Trainable params: 74607 (291.43 KB)
Non-trainable params: 0 (0.00 Byte)
_________________________________________________________________
```
## Train base MLP model
```python
# Compile and train the base MLP model
base_model.compile(
optimizer='adam',
loss=tf.keras.losses.SparseCategoricalCrossentropy(from_logits=True),
…
