…
The default runtime of TFF is the same as TF: when GPUs are provided, the first GPU will be chosen for execution. We run the previously defined federated training for several rounds with a relatively small model. The last round of execution is profiled with tf.profiler and visualized by tensorboard . The profiling verified the first GPU is used.


run_federated_training(
    client_epochs_per_round=1,
    train_batch_size=16,
    test_batch_size=128,
    cnn_num_blocks=2,
    conv_width_multiplier=4,
    server_learning_rate=1.0,
    client_learning_rate=0.01,
    total_rounds=10,
    clients_per_round=16,
    rounds_per_eval=2,
)




Model: "cnn-14-4"
Layer (type)                 Output Shape              Param #   
=================================================================
input_1 (InputLayer)         [(None, 28, 28, 1)]       0         
tf.image.per_image_standardi (None, 28, 28, 1)         0         
conv2d (Conv2D)              (None, 28, 28, 64)        576       
conv2d_1 (Conv2D)            (None, 28, 28, 64)        36864     
activation (Activation)      (None, 28, 28, 64)        0         
conv2d_2 (Conv2D)            (None, 28, 28, 64)        36864     
activation_1 (Activation)    (None, 28, 28, 64)        0         
conv2d_3 (Conv2D)            (None, 28, 28, 64)        36864     
activation_2 (Activation)    (None, 28, 28, 64)        0         
conv2d_4 (Conv2D)            (None, 28, 28, 64)        36864     
activation_3 (Activation)    (None, 28, 28, 64)        0         
conv2d_5 (Conv2D)            (None, 14, 14, 128)       73728     
activation_4 (Activation)    (None, 14, 14, 128)       0         
conv2d_6 (Conv2D)            (None, 14, 14, 128)       147456    
activation_5 (Activation)    (None, 14, 14, 128)       0         
conv2d_7 (Conv2D)            (None, 14, 14, 128)       147456    
activation_6 (Activation)    (None, 14, 14, 128)       0         
conv2d_8 (Conv2D)            (None, 14, 14, 128)       147456    
activation_7 (Activation)    (None, 14, 14, 128)       0         
conv2d_9 (Conv2D)            (None, 7, 7, 256)         294912    
activation_8 (Activation)    (None, 7, 7, 256)         0         
conv2d_10 (Conv2D)           (None, 7, 7, 256)         589824    
activation_9 (Activation)    (None, 7, 7, 256)         0         
conv2d_11 (Conv2D)           (None, 7, 7, 256)         589824    
activation_10 (Activation)   (None, 7, 7, 256)         0         
conv2d_12 (Conv2D)           (None, 7, 7, 256)         589824    
activation_11 (Activation)   (None, 7, 7, 256)         0         
global_average_pooling2d (Gl (None, 256)               0         
dense (Dense)                (None, 10)                2570      
=================================================================
Round 0 training loss: 2.4688243865966797, time: 13.382015466690063 secs
Round 0 validation accuracy: 15.240497589111328
Round 1 training loss: 2.3217368125915527, time: 9.311999917030334 secs
Round 2 training loss: 2.3100595474243164, time: 6.972411632537842 secs
Round 2 validation accuracy: 11.226489067077637
Round 3 training loss: 2.303222417831421, time: 6.467299699783325 secs
…
Let us run a larger model on CPU with less federated rounds.


run_federated_training(
    client_epochs_per_round=1,
    train_batch_size=16,
    test_batch_size=128,
    cnn_num_blocks=4,
    conv_width_multiplier=4,
    server_learning_rate=1.0,
    client_learning_rate=0.01,
    total_rounds=5,
    clients_per_round=16,
    rounds_per_eval=2,
)




Model: "cnn-26-4"
Layer (type)                 Output Shape              Param #   
=================================================================
input_4 (InputLayer)         [(None, 28, 28, 1)]       0         
tf.image.per_image_standardi (None, 28, 28, 1)         0         
conv2d_39 (Conv2D)           (None, 28, 28, 64)        576       
conv2d_40 (Conv2D)           (None, 28, 28, 64)        36864     
activation_36 (Activation)   (None, 28, 28, 64)        0         
conv2d_41 (Conv2D)           (None, 28, 28, 64)        36864     
activation_37 (Activation)   (None, 28, 28, 64)        0         
conv2d_42 (Conv2D)           (None, 28, 28, 64)        36864     
activation_38 (Activation)   (None, 28, 28, 64)        0         
conv2d_43 (Conv2D)           (None, 28, 28, 64)        36864     
activation_39 (Activation)   (None, 28, 28, 64)        0         
conv2d_44 (Conv2D)           (None, 28, 28, 64)        36864     
activation_40 (Activation)   (None, 28, 28, 64)        0         
conv2d_45 (Conv2D)           (None, 28, 28, 64)        36864     
activation_41 (Activation)   (None, 28, 28, 64)        0         
conv2d_46 (Conv2D)           (None, 28, 28, 64)        36864     
activation_42 (Activation)   (None, 28, 28, 64)        0         
conv2d_47 (Conv2D)           (None, 28, 28, 64)        36864     
activation_43 (Activation)   (None, 28, 28, 64)        0         
conv2d_48 (Conv2D)           (None, 14, 14, 128)       73728     
activation_44 (Activation)   (None, 14, 14, 128)       0         
conv2d_49 (Conv2D)           (None, 14, 14, 128)       147456    
activation_45 (Activation)   (None, 14, 14, 128)       0         
conv2d_50 (Conv2D)           (None, 14, 14, 128)       147456    
activation_46 (Activation)   (None, 14, 14, 128)       0         
conv2d_51 (Conv2D)           (None, 14, 14, 128)       147456    
activation_47 (Activation)   (None, 14, 14, 128)       0         
conv2d_52 (Conv2D)           (None, 14, 14, 128)       147456    
activation_48 (Activation)   (None, 14, 14, 128)       0         
conv2d_53 (Conv2D)           (None, 14, 14, 128)       147456    
activation_49 (Activation)   (None, 14, 14, 128)       0         
conv2d_54 (Conv2D)           (None, 14, 14, 128)       147456    
activation_50 (Activation)   (None, 14, 14, 128)       0         
conv2d_55 (Conv2D)           (None, 14, 14, 128)       147456    
activation_51 (Activation)   (None, 14, 14, 128)       0         
conv2d_56 (Conv2D)           (None, 7, 7, 256)         294912    
activation_52 (Activation)   (None, 7, 7, 256)         0         
conv2d_57 (Conv2D)           (None, 7, 7, 256)         589824    
activation_53 (Activation)   (None, 7, 7, 256)         0         
conv2d_58 (Conv2D)           (None, 7, 7, 256)         589824    
activation_54 (Activation)   (None, 7, 7, 256)         0         
conv2d_59 (Conv2D)           (None, 7, 7, 256)         589824    
activation_55 (Activation)   (None, 7, 7, 256)         0         
conv2d_60 (Conv2D)           (None, 7, 7, 256)         589824    
activation_56 (Activation)   (None, 7, 7, 256)         0         
conv2d_61 (Conv2D)           (None, 7, 7, 256)         589824    
activation_57 (Activation)   (None, 7, 7, 256)         0         
conv2d_62 (Conv2D)           (None, 7, 7, 256)         589824    
activation_58 (Activation)   (None, 7, 7, 256)         0         
conv2d_63 (Conv2D)           (None, 7, 7, 256)         589824    
activation_59 (Activation)   (None, 7, 7, 256)         0         
global_average_pooling2d_3 ( (None, 256)               0         
dense_3 (Dense)              (None, 10)                2570      
=================================================================
Round 0 training loss: 2.437223434448242, time: 24.121686458587646 secs
Round 0 validation accuracy: 9.024785041809082
Round 1 training loss: 2.3081459999084473, time: 19.48685622215271 secs
Round 2 training loss: 2.305305242538452, time: 15.73950457572937 secs
Round 2 validation accuracy: 9.791339874267578
Round 3 training loss: 2.303149700164795, time: 15.194068729877472 secs
…
