…
1024, activation='relu',
name="structural_pruning_dense"),
**pruning_params_2_by_4),
keras.layers.Dropout(0.4),
keras.layers.Dense(10)
model.compile(optimizer='adam',
loss=keras.losses.SparseCategoricalCrossentropy(from_logits=True),
metrics=['accuracy'])
model.summary()
```python
2026-01-14 12:38:44.733943: E external/local_xla/xla/stream_executor/cuda/cuda_platform.cc:51] failed call to cuInit: INTERNAL: CUDA error: Failed call to cuInit: CUDA_ERROR_NO_DEVICE: no CUDA-capable device is detected
Model: "sequential"
Layer (type)                Output Shape              Param #
prune_low_magnitude_prunin  (None, 28, 28, 32)        1634
g_sparsity_0_5 (PruneLowMa
gnitude)
max_pooling2d (MaxPooling2  (None, 14, 14, 32)        0
prune_low_magnitude_struct  (None, 14, 14, 64)        102466
ural_pruning (PruneLowMagn
itude)
batch_normalization (Batch  (None, 14, 14, 64)        256
Normalization)
re_lu (ReLU)                (None, 14, 14, 64)        0
max_pooling2d_1 (MaxPoolin  (None, 7, 7, 64)          0
flatten (Flatten)           (None, 3136)              0
prune_low_magnitude_struct  (None, 1024)              6423554
ural_pruning_dense (PruneL
owMagnitude)
dropout (Dropout)           (None, 1024)              0
dense (Dense)               (None, 10)                10250
Total params: 6538160 (24.94 MB)
Trainable params: 3274762 (12.49 MB)
Non-trainable params: 3263398 (12.45 MB)
```python
batch_size = 128
epochs = 2
model.fit(
train_images,
train_labels,
batch_size=batch_size,
epochs=epochs,
verbose=0,
callbacks=tfmot.sparsity.keras.UpdatePruningStep(),
validation_split=0.1)
_, pruned_model_accuracy = model.evaluate(test_images, test_labels, verbose=0)
print('Pruned test accuracy:', pruned_model_accuracy)
…
